passport_recognition/Model parameters/savedmodel_transformer0.455.pth (torch, 278138 bytes, 20 tensors)

patch_embed.proj.weight f4 [64, 3, 2, 2]
0.1599207 0.13297339 -0.16797943 0.2239745 -0.1234498 -0.06553145 0.1300085 0.027037397
0.1796773 -0.086277895 0.055188123 -0.17767762 -0.19591136 0.23521547 -0.15022166 0.05065855
0.1948482 -0.03205437 0.056753304 -0.15133074 0.15272601 -0.01210544 -0.042533074 0.2177232
-0.05494119 0.12386657 -0.07537651 -0.12231466 -0.14611255 -0.15286416 -0.24743026 -0.034723584
0.13757016 -0.1955537 0.06143354 -0.16488485 -0.23618713 0.27478546 -0.20320491 -0.09153503
-0.30067566 -0.2930751 0.18844628 -0.04056933 -0.18321651 0.10978786 0.0911538 -0.19122538
0.049346384 0.13091034 0.09072068 0.26728493 -0.039873507 0.17258489 0.19233848 -0.1983118
0.094525665 0.11673079 0.26427144 0.15745625 0.20982929 0.03174694 0.24056499 0.10680173
-0.05943912 -0.0064409385 0.32826424 0.16130432 0.06706419 0.289604 0.07620858 -0.04116761
0.20382977 0.23711984 0.15314993 -0.26702663 -0.06711016 0.10679349 0.012455973 0.20896429
-0.30311003 -0.24723096 -0.25513315 -0.089140214 0.033305384 -0.23306525 0.1842711 -0.29190052
0.16850573 -0.3252521 0.16678365 -0.23929535 -0.1973439 -0.03541369 0.09381782 -0.0011648786
-0.095271885 -0.23552357 -0.16695295 -0.13296784 0.11637769 -0.26240918 -0.11078948 -0.13066675
-0.079658225 -0.039457012 -0.130462 -0.28598166 0.12043859 0.17749582 0.33895022 0.19353211
0.22385734 -0.15298727 -0.21887745 -0.25157776 0.1209809 -0.116908155 0.022784257 0.2497114
0.04421262 0.096709795 0.11344914 0.04874464 0.13709857 -0.030631453 -0.18860132 -0.24849598
-0.19968084 -0.067445375 -0.040086437 -0.19575019 0.1467325 -0.33057237 0.028017538 -0.2135852
-0.10719274 0.21914302 0.108029686 -0.1837081 0.01186864 -0.15712188 -0.038525227 -0.32321125
0.002207954 0.30373305 -0.13476391 0.11862257 0.33099633 -0.17021273 0.036553964 0.16623576
0.07034564 0.14587384 0.28196797 -0.09187996 -0.10004599 0.2252622 -0.15972978 -0.16678274
0.18556158 -0.072188325 0.09904304 0.06527051 -0.12479142 0.17759018 0.18362564 -0.045849547
-0.0802761 0.043937404 -0.10440306 -0.060703184 0.110838436 -0.10780108 0.20053424 0.14610818
-0.17774676 -0.17383824 -0.08522518 0.17834142 -0.11236212 -0.32338995 0.19390738 -0.15755142
-0.2567966 -0.32763842 0.060292147 -0.112021744 -0.1441248 0.085107885 -0.08788174 -0.15259331
0.15924972 -0.1133528 0.005652384 0.22092162 0.20714356 0.30628008 0.2964981 0.20025912
0.23740932 -0.06332994 0.1277119 0.15727225 -0.2483014 -0.16449253 0.13201919 0.09524974
-0.22382854 -0.080788806 -0.056399047 0.11860713 -0.18251985 0.24501033 0.26515573 -0.26726517
-0.28317884 0.025571078 -0.11418284 -0.21845102 -0.08993563 -0.18635947 -0.040328898 -0.28033432
-0.071528845 0.1908882 0.02888264 -0.15164295 0.16043474 0.20682998 0.19359311 -0.27742466
0.28176203 0.20189494 -0.012207714 0.22182803 -0.13441575 -0.17341451 0.20574607 -0.041079868
-0.015142227 -0.16393143 -0.054647688 -0.04462185 -0.07945598 -0.097543925 0.09105997 0.3024434
0.22588946 0.13225581 0.22075029 0.13254791 0.36815336 -0.031337608 0.29885942 0.34885427
00000000: 41c2 233e 2d2a 083e cd02 2cbe 9259 653e
00000010: 40d3 fcbd 5a35 86bd f320 053e 887d dd3c
00000020: 53fd 373e 77b2 b0bd f10c 623d 1ff1 35be
00000030: fd9c 48be 53dc 703e b5d3 19be 577f 4f3d
00000040: 4986 473e 714b 03bd 2776 683d 72f6 1abe
00000050: 3564 1c3e e555 46bc 2937 2ebd d5f2 5e3e
00000060: 030a 61bd c2ad fd3d 005f 9abd 1c80 fabd
00000070: 879e 15be 6c88 1cbe 5c5e 7dbe 513a 0ebd
00000080: 31df 0c3e 3b3f 48be bca1 7b3d 93d7 28be
00000090: 0adb 71be aeb0 8c3e f314 50be b876 bbbd
000000a0: 29f2 99be f10d 96be 10f8 403e 072c 26bd
000000b0: 1c9d 3bbe 75d8 e03d d8ae ba3d 96d0 43be
000000c0: 6f1f 4a3d 5c0d 063e c4cb b93d 92d9 883e
000000d0: 6752 23bd 18ba 303e 61f4 443e 4012 4bbe
000000e0: ac96 c13d 8d10 ef3d 964e 873e 363c 213e
000000f0: 7ddd 563e 1409 023d ab56 763e deba da3d
00000100: 6f76 73bd 820e d3bb 4012 a83e f62c 253e
00000110: f358 893d fa46 943e 3e13 9c3d 5e9f 28bd
00000120: c0b8 503e 8bcf 723e 56d3 1c3e b7b7 88be
00000130: 0d71 89bd 8cb6 da3d 2314 4c3c bcfa 553e
00000140: 3d31 9bbe 1d2a 7dbe d0a0 82be 258f b6bd
00000150: 3a6b 083d a8a8 6ebe 90b1 3c3e fc73 95be
00000160: c48c 2c3e 7187 a6be 55c9 2a3e d709 75be
00000170: 8514 4abe f20d 11bd 8f23 c03d d7ae 98ba
00000180: e81d c3bd 172d 71be b7f5 2abe b928 08be
00000190: 6d57 ee3d 7f5a 86be 98e5 e2bd 81cd 05be
000001a0: da23 a3bd ad9d 21bd d597 05be 306c 92be
000001b0: 82a8 f63d 77c1 353e e28a ad3e 482d 463e
000001c0: dc3a 653e b2a8 1cbe 6921 60be cdce 80be
000001d0: d6c4 f73d 8b6d efbd 0da6 ba3c 58b4 7f3e
000001e0: 4b18 353d c90f c63d 0658 e83d 76a8 473d
000001f0: 9163 0c3e d0ee fabc b420 41be bb75 7ebe
00000200: 2279 4cbe cd20 8abd ad31 24bd bd72 48be
00000210: 0b41 163e c840 a9be 0985 e53c 14b6 5abe
00000220: de87 dbbd 0767 603e ab3e dd3d fa1d 3cbe
00000230: af74 423c 8fe4 20be a1cc 1dbd f27b a5be
00000240: 52b3 103b e682 9b3e 8dff 09be 64f0 f23d
00000250: 5a78 a93e 3f4c 2ebe 9cb9 153d b539 2a3e
00000260: 6011 903d f45f 153e 1b5e 903e 8f2b bcbd
00000270: e9e4 ccbd 22ab 663e 3490 23be 18c9 2abe
00000280: db03 3e3e 79d7 93bd 14d7 ca3d 8cac 853d
00000290: a592 ffbd 33da 353e 5c08 3c3e bccc 3bbd
000002a0: cc67 a4bd b5f7 333d 46d1 d5bd e7a3 78bd
000002b0: 43ff e23d d0c6 dcbd d958 4d3e 629d 153e
000002c0: 3f03 36be a702 32be 8a8a aebd 229f 363e
000002d0: 1c1e e6bd 5e93 a5be a88f 463e 2955 21be
000002e0: d87a 83be 39c0 a7be e6f4 763d a86b e5bd
000002f0: 7495 13be 0b4d ae3d 57fb b3bd 6c41 1cbe
00000300: 5c12 233e 8325 e8bd a237 b93b 4739 623e
00000310: 711d 543e bed0 9c3e 99ce 973e ba10 4d3e
00000320: 6e1b 733e 21b3 81bd e9c6 023e fa0b 213e
00000330: b942 7ebe bb70 28be 0a30 073e 4c12 c33d
00000340: 4f33 65be 9a74 a5bd b002 67bd 4ce8 f23d
00000350: 7ce6 3abe fde3 7a3e 7ec2 873e fbd6 88be
00000360: d1fc 90be 707a d13c b1d8 e9bd a0b1 5fbe
00000370: 2c30 b8bd 04d5 3ebe ea2f 25bd fb87 8fbe
00000380: b77d 92bd 3278 433e 499b ec3c 4a48 1bbe
00000390: 0149 243e 3dcb 533e 463d 463e 9b0a 8ebe
000003a0: 1d43 903e 8cbd 4e3e dd02 48bc e326 633e
000003b0: 48a4 09be 9393 31be 19af 523e 5d43 28bd
000003c0: 1a17 78bc a4dd 27be 41d6 5fbd 67c5 36bd
000003d0: d1b9 a2bd 1cc5 c7bd a67d ba3d dcd9 9a3e
000003e0: 914f 673e 116e 073e 5d0c 623e a4ba 073e
000003f0: 997e bc3e dd5b 00bd 1a04 993e 079d b23e

patch_embed.proj.bias f4 [64]
0.23167591 -0.2269516 -0.35016128 0.09941429 4.444552e-05 0.347361 -0.0039138673 0.093399875
0.14732505 0.45825577 0.16058046 0.20208226 0.24671057 -0.038245592 0.20181921 0.020648994
0.20256932 0.16901587 0.10114266 0.17868453 0.36782545 -0.054696232 -0.017607648 0.00042423303
-0.06026556 0.14467067 0.12577836 -0.22849338 0.06093588 0.23326436 0.20283891 0.19806018
-0.16553633 0.42360047 -0.060413375 -0.33604077 0.08004381 -0.012380146 0.30458054 0.082892835
-0.037202194 0.14906189 0.080554016 0.42977676 0.109756656 0.34000626 0.08306788 -0.16912629
-0.21966486 0.053596206 -0.33926147 -0.027133629 0.15358879 -0.39324835 0.22809596 -0.10412527
0.17174019 -0.45203444 -0.25118008 -0.1768384 -0.0020663976 0.012561801 -0.38017863 -0.2371616
00000000: 733c 6d3e 0066 68be 5748 b3be b899 cb3d
00000010: 046b 3a38 4dd9 b13e e63f 80bb 6f48 bf3d
00000020: 61dc 163e 80a0 ea3e 346f 243e a7ee 4e3e
00000030: b2a1 7c3e 69a7 1cbd b2a9 4e3e 1428 a93c
00000040: 556e 4f3e 7f12 2d3e e223 cf3d 14f9 363e
00000050: 9e53 bc3e 2809 60bd ea3d 90bc 986b de39
00000060: 05d9 76bd 8c24 143e 0bcc 003e 2bfa 69be
00000070: e797 793d dadc 6e3e 01b5 4f3e 4ad0 4a3e
00000080: 5b82 29be 29e2 d83e 0474 77bd 890d acbe
00000090: 02ee a33d 19d6 4abc fbf1 9b3e b8c3 a93d
000000a0: 5461 18bd aea3 183e 81f9 a43d b30b dc3e
000000b0: 19c8 e03d 4d15 ae3e 7e1f aa3d 712f 2dbe
000000c0: d3ef 60be b287 5b3d aeb3 adbe 5847 debc
000000d0: 6146 1d3e d957 c9be fd91 693e a13f d5bd
000000e0: a9dc 2f3e 0f71 e7be ad9a 80be 2015 35be
000000f0: 666c 07bb 03d0 4d3c c6a6 c2be 7eda 72be

blocks.0.qkv.weight f4 [192, 64]
-0.0170673 0.09984307 -0.02942282 -0.058739252 -0.07590138 0.07113478 0.10187379 0.06754013
-0.046709307 -0.06292484 -0.10509035 -0.11924597 -0.052322075 0.06114405 -0.05189054 -0.046947885
0.11083843 0.025602287 0.122783124 0.0038367757 0.09640126 -0.048648387 0.08594987 -0.032406993
-0.051710926 0.091831565 0.064526185 0.07523336 0.02962646 -0.07631475 0.09026537 -0.054879796
-0.015727732 0.07486282 -0.12064257 0.123750925 -0.12692535 0.09895166 -0.11226443 -0.086987056
-0.0636989 0.049806178 -0.007819924 0.030324565 0.1140326 0.069569305 0.11089652 0.080664285
0.08364571 -0.097883746 0.12352394 0.026887154 0.06083444 -0.009566995 0.02389502 -0.04388023
0.08824704 -0.08487576 -0.107138135 0.036795236 0.0124482075 0.06361146 0.12087655 -0.023869406
0.028679835 0.032738477 0.12707183 -0.02671586 -0.041284934 0.10906339 -0.009296709 0.07787994
0.111851126 -0.11876382 -0.09834514 -0.0030855397 -0.09405631 -0.12325687 -0.10577152 0.03700443
0.07602583 0.11145135 0.07955527 0.116365366 -0.08429508 -0.09123578 0.114931315 0.07529838
-0.053022716 -0.114097394 0.010467759 0.112606175 0.032644097 -0.07667116 0.023270799 -0.11983483
0.06985652 0.035611007 -0.010283058 -0.09911607 -0.013304094 0.05823952 0.017038403 0.01173749
-0.029620955 -0.07839131 -0.12142887 -0.0084678605 -0.047340985 0.052776262 -0.11135251 0.123652644
0.01661623 -0.10723764 0.05029414 -0.117105804 -0.00081995 -0.056010723 0.071374305 0.09801644
-0.049179114 -0.043735072 0.021145651 -0.12310066 -0.01624708 0.0498126 -0.0011044649 -0.09506226
-0.019194249 -0.029486407 -0.065115295 -0.05782547 0.03195519 -0.020570934 0.037134353 0.114383295
0.10775518 -0.11581478 -0.08971518 0.049143497 0.105159886 0.119887166 0.04471102 0.05626555
0.10757783 0.007071976 -0.076608494 -0.074919485 0.060167924 0.107142515 0.014635353 -0.076684706
0.09354201 0.07610545 0.07576705 -0.097105786 0.11081103 -0.08309884 -0.091531664 0.08802985
-0.111084566 -0.012577683 0.061158605 0.07944012 0.11179011 0.08233531 0.0064599365 0.07931893
0.08249912 -0.065723285 0.071139574 -0.047695603 0.1142565 -0.08619253 0.020176657 -0.106945224
0.009619054 -0.018970117 -0.12014023 -0.016838256 0.031391032 0.012312396 0.11905854 0.08096749
0.031449925 0.03641627 -0.041169915 0.12604803 -0.11891531 0.09387287 -0.020323854 -0.050277982
-0.079356134 -0.106258616 -0.09999958 0.06935096 -0.10842662 -0.13497157 -0.0148569215 -0.03550921
0.0049924543 0.06359306 0.118067026 -0.10727664 -0.02892215 -0.009678582 0.12352904 -0.047530334
-0.05359895 0.003876878 0.008837013 -0.008130361 0.06730449 0.06693164 0.0025212427 -0.0049915332
0.117678344 -0.060692985 0.04297456 -0.064447075 -0.06370195 -0.06434995 -0.08459627 -0.07979044
-0.11091334 -0.049058095 0.04814717 -0.06939565 -0.01231386 -0.0077682394 -0.05413041 -0.091118895
-0.07600377 0.09034323 0.01248275 0.021055715 -0.12444744 0.10017354 -0.03724244 -0.058855895
0.07882631 0.006195925 -0.08872924 0.021074265 -0.0016967199 0.053664137 0.021531269 0.061691687
0.10011957 -0.091507696 -0.0596214 0.065165974 -0.0055778148 -0.030541675 0.079298794 -0.01382611
00000000: b9d0 8bbc 867a cc3d 2008 f1bc 9298 70bd
00000010: 2f72 9bbd 1daf 913d 35a3 d03d 7b52 8a3d
00000020: 4252 3fbd bdde 80bd 9c39 d7bd 3b37 f4bd
00000030: ac4f 56bd 2f72 7a3d 2d8b 54bd 6d4c 40bd
00000040: 42ff e23d e3bb d13c b875 fb3d 6a72 7b3b
00000050: 066e c53d 8843 47bd 7c06 b03d 32bd 04bd
00000060: d6ce 53bd 3012 bc3d 4e26 843d f313 9a3d
00000070: 31b3 f23c e84a 9cbd 0ddd b83d a3c9 60bd
00000080: 72d7 80bc ae51 993d 7413 f7bd 2071 fd3d
00000090: b8f8 01be 2ba7 ca3d e5ea e5bd 4526 b2bd
000000a0: 9274 82bd 9001 4c3d 231f 00bc 396b f83c
000000b0: ec89 e93d 5a7a 8e3d b71d e33d 5133 a53d
000000c0: 714e ab3d 4677 c8bd 1ffa fc3d 7342 dc3c
000000d0: 892d 793d e3be 1cbc 7dbf c33c c2bb 33bd
000000e0: ddba b43d 58d3 adbd 3d6b dbbd 9ab6 163d
000000f0: 91f3 4b3c ba46 823d 208e f73d c689 c3bc
00000100: f9f1 ea3c c818 063d 1e1f 023e 38db dabc
00000110: 641a 29bd a05c df3d 3951 18bc 857f 9f3d
00000120: 3412 e53d 723a f3bd 2d69 c9bd c436 4abb
00000130: 98a0 c0bd 196e fcbd bd9e d8bd f591 173d
00000140: 6eb3 9b3d 9b40 e43d e0ed a23d f750 ee3d
00000150: e6a2 acbd d3d9 babd 1c61 eb3d 0936 9a3d
00000160: 592e 59bd e5ab e9bd f780 2b3c 119e e63d
00000170: d1b5 053d c505 9dbd 67a2 be3c f76b f5bd
00000180: ef10 8f3d d9dc 113d 457a 28bc 5efd cabd
00000190: 6af9 59bc 908c 6e3d 1f94 8b3c 9a4e 403c
000001a0: a5a7 f2bc a08b a0bd b3af f8bd c8bc 0abc
000001b0: 9fe8 41bd ec2b 583d c90c e4bd 993d fd3d
000001c0: c31e 883c 689f dbbd 3a01 4e3d 2bd5 efbd
000001d0: eaf1 56ba 806b 65bd b12c 923d d8bc c83d
000001e0: 0a70 49bd 8c23 33bd a539 ad3c 331c fcbd
000001f0: 9918 85bc 4c08 4c3d b1c3 90ba 01b0 c2bd
00000200: 423d 9dbc 7a8d f1bc 2b5b 85bd 66da 6cbd
00000210: 72e3 023d 6084 a8bc 311a 183d ca41 ea3d
00000220: bfae dc3d 4d30 edbd 98bc b7bd b14a 493d
00000230: 115e d73d 6787 f53d e722 373d b576 663d
00000240: c451 dc3d 09bc e73b eae4 9cbd 636f 99bd
00000250: a472 763d 896d db3d 1fc9 6f3c df0c 9dbd
00000260: f492 bf3d 2ddd 9b3d c12b 9b3d 66df c6bd
00000270: e5f0 e23d ba2f aabd f474 bbbd fe48 b43d
00000280: 4e80 e3bd a012 4ebc 7281 7a3d 80b1 a23d
00000290: 37f2 e43d 6a9f a83d e0ad d33b f771 a23d
000002a0: 4cf5 a83d ee99 86bd a0b1 913d 775c 43bd
000002b0: 50ff e93d b685 b0bd 8449 a53c 1906 dbbd
000002c0: 3d99 1d3c 3867 9bbc 150c f6bd 62f0 89bc
000002d0: e293 003d efb9 493c f7d4 f33d 49d2 a53d
000002e0: a3d1 003d 3a29 153d c9a1 28bd bc12 013e
000002f0: df89 f3bd 6b40 c03d 367e a6bc 49f0 4dbd
00000300: 7885 a2bd 1e9e d9bd 94cc ccbd e007 8e3d
00000310: c70e debd fd35 0abe 726a 73bc 1b72 11bd
00000320: be97 a33b 143d 823d 20cd f13d dbb3 dbbd
00000330: 25ee ecbc ea92 1ebc cbfc fc3d 2baf 42bd
00000340: 938a 5bbd 3813 7e3b 1ec9 103c 3535 05bc
00000350: f0d6 893d 7513 893d 6f3b 253b 0490 a3bb
00000360: 5801 f13d 3599 78bd 1806 303d d4fc 83bd
00000370: 2b76 82bd e8c9 83bd cf40 adbd 2c69 a3bd
00000380: 8826 e3bd 24f1 48bd f835 453d 4e1f 8ebd
00000390: 12c0 49bc b78c febb d9b7 5dbd 8b9c babd
000003a0: dda7 9bbd df05 b93d 7384 4c3c 097d ac3c
000003b0: 4dde febd c927 cd3d 878b 18bd e112 71bd
000003c0: b06f a13d 3007 cb3b adb7 b5bd f0a3 ac3c
000003d0: 7964 deba edce 5b3d 5862 b03c 6cb0 7c3d
000003e0: 7d0b cd3d 6368 bbbd 9235 74bd bd75 853d
000003f0: 1ac6 b6bb 8932 fabc 6867 a23d e986 62bc

blocks.0.qkv.bias f4 [192]
-0.08351698 -0.12845033 0.039520077 -0.08435738 0.08666623 -0.047020443 0.09240581 -0.01216122
0.028039316 -0.006876564 -0.071642496 -0.07402839 0.10124361 0.051150702 -0.08303185 -0.06440975
0.07489688 -0.10098675 -0.11182034 0.004972074 0.1280439 -0.044519566 -0.11184453 -0.051074114
-0.06911625 0.0294576 -0.061705865 0.02435728 -0.06264327 -0.05028205 -0.0053879633 -0.0674742
-0.03830438 -0.2620761 -0.6354298 0.04970125 0.18843462 -0.20591868 0.089811206 0.17873715
-0.3359659 0.1503149 0.12114303 0.2178225 0.3392282 -0.18813053 0.08255078 -0.087789215
0.061308324 0.07184684 -0.092558965 0.07567523 0.013544688 0.012214418 0.005210193 -0.13179126
0.13774587 -0.0067045237 -0.08272765 -0.04123714 0.054774106 -0.09205266 0.07264306 0.07657374
0.054027915 -0.08189057 0.062827826 0.04648371 0.09261125 -0.06588264 0.022712275 0.09535022
0.084937766 -0.06231588 -0.06876263 -0.043246582 -0.08658086 0.016603619 -0.06470035 0.020417243
0.05386837 0.11843306 0.02842857 0.06808643 -0.101751804 0.008479552 -0.12145761 0.033864796
0.11841701 0.09236945 -0.11932193 -0.12465766 0.029068708 0.10218634 0.0042568 -0.054075018
0.09928699 -0.034465283 0.06792939 0.019686729 -0.0003654566 -0.030299664 -0.09607811 0.019230127
-0.020823285 0.02082619 0.023994863 0.08154388 -0.113288075 -0.07295519 0.045243576 -0.086577415
-0.05383706 0.02440323 -0.031321406 -0.059329122 -0.117185384 -0.024847895 0.093100235 0.09832886
0.10990289 -0.09089726 0.014378235 -0.011891916 -0.053632006 0.09245238 0.07782507 -0.069847286
0.012949101 0.10467154 0.013451891 0.011560236 0.023418162 0.052131362 0.013899322 0.0061141574
0.07243916 -0.039884545 0.032894526 -0.06365585 0.11396639 -0.096669845 -0.1036493 -0.06658684
-0.06329769 -0.0078792265 -0.09147127 0.042315792 -0.030516306 0.1062697 -0.059858464 0.11277415
-0.13041143 0.018139815 0.060407616 0.010392896 -0.045760244 0.008988552 -0.020430833 -0.13940504
0.112970114 0.105159774 -0.08370808 -0.10524067 0.08825813 0.10486245 0.033983108 -0.13223688
-0.012297961 0.14592701 0.05337824 -0.11492982 -0.14046624 0.13464096 -0.07875521 0.12699643
0.11871358 -0.003640897 -0.019273771 0.08764819 -0.050216842 -0.025446625 0.10847533 -0.09986781
-0.035454504 0.02836579 -0.12587222 0.0070534092 -0.05111621 0.10176852 -0.12119886 0.052177344
00000000: f30a abbd 7c88 03be cedf 213d 90c3 acbd
00000010: 107e b13d 8298 40bd 423f bd3d db3f 47bc
00000020: b5b2 e53c cd54 e1bb 4db9 92bd 329c 97bd
00000030: cf58 cf3d 6683 513d 9a0c aabd 42e9 83bd
00000040: 8963 993d 24d2 cebd 1002 e5bd c8ec a23b
00000050: f11d 033e 265a 36bd bf0e e5bd 1733 51bd
00000060: d28c 8dbd 1151 f13c 4abf 7cbd eb88 c73c
00000070: 1d4b 80bd 8df4 4dbd 838d b0bb ea2f 8abd
00000080: 0ee5 1cbd d72e 86be 87ab 22bf 8a93 4b3d
00000090: 01f5 403e 59dc 52be f0ee b73d df06 373e
000000a0: b903 acbe 26ec 193e d619 f83d dd0c 5f3e
000000b0: 52af ad3e 4aa5 40be 6210 a93d d5ca b3bd
000000c0: 701e 7b3d 7024 933d 8e8f bdbd 9dfb 9a3d
000000d0: 8aea 5d3c fb1e 483c 44ba aa3b 4af4 06be
000000e0: 410d 0d3e 9fb1 dbbb 1d6d a9bd 46e8 28bd
000000f0: d05a 603d 1b86 bcbd e2c5 943d b1d2 9c3d
00000100: 604c 5d3d 3eb6 a7bd e0ab 803d b465 3e3d
00000110: f8aa bd3d 7aed 86bd 180f ba3c fa46 c33d
00000120: daf3 ad3d f03e 7fbd 6cd3 8cbd 5423 31bd
00000130: 4e51 b1bd 5004 883c 9e81 84bd 1042 a73c
00000140: 14a5 5c3d 088d f23d 08e3 e83c e670 8b3d
00000150: 4063 d0bd d2ed 0a3c c4be f8bd d0b5 0a3d
00000160: 9e84 f23d 322c bd3d 0e5f f4bd 844c ffbd
00000170: 8021 ee3c 1247 d13d a07c 8b3b c47d 5dbd
00000180: fa56 cb3d 782b 0dbd 901e 8b3d 1046 a13c
00000190: c19a bfb9 0037 f8bc 9ac4 c4bd 8088 9d3c
000001a0: 9895 aabc b09b aa3c e090 c43c 7a00 a73d
000001b0: 9403 e8bd 8869 95bd 5451 393d 804f b1bd
000001c0: 4084 5cbd 48e9 c73c e04a 00bd 1803 73bd
000001d0: e4fe efbd d08d cbbc 56ab be3d a460 c93d
000001e0: c414 e13d 5828 babd b092 6b3c 50d6 42bc
000001f0: 3cad 5bbd ac57 bd3d c062 9f3d 180c 8fbd
00000200: 7728 543c 085e d63d 5265 5c3c 2567 3d3c
00000210: 72d7 bf3c b287 553d fbb9 633c 4559 c83b
00000220: fb5a 943d fa5d 23bd 69bc 063d 005e 82bd
00000230: 3667 e93d d7fa c5bd 1646 d4bd ae5e 88bd
00000240: 38a2 81bd df17 01bc 4a55 bbbd 5353 2d3d
00000250: 55fd f9bc eea3 d93d 262e 75bd 22f6 e63d
00000260: 938a 05be f399 943c fa6d 773d f746 2a3c
00000270: 186f 3bbd b844 133c 905e a7bc 32c0 0ebe
00000280: e05c e73d 025e d73d 246f abbd 6c88 d7bd
00000290: aec0 b43d 20c2 d63d df31 0b3d 1b69 07be
000002a0: 637d 49bc e46d 153e 24a3 5a3d 5360 ebbd
000002b0: 62d6 0fbe 52df 093e 694a a1bd 5a0b 023e
000002c0: 1b20 f33d 1e9c 6ebb 07e4 9dbc e580 b33d
000002d0: 2db0 4dbd 7175 d0bc 5028 de3d 7f87 ccbd
000002e0: be38 11bd 605f e83c a6e4 00be 4920 e73b
000002f0: 3b5f 51bd 046c d03d 1c37 f8bd e9b7 553d

blocks.0.proj.weight f4 [64, 64]
0.06273195 0.11136627 -0.104367726 0.00038362577 -0.010048552 0.029157482 -0.028317457 0.07823104
0.08506684 -0.08843687 0.047344234 -0.08894095 -0.049510606 -0.057338692 -0.040553227 0.07294899
-0.003745486 0.067296505 0.13995074 -0.11542917 -0.040744 0.007434534 0.06484847 0.10239919
-0.09520568 0.053645216 -0.033587303 0.0741285 0.10545254 -0.029498845 0.034153797 0.02430067
-0.0034308606 -0.058356274 0.0874814 0.110028654 0.18925075 -0.03364102 0.16927285 0.07938541
0.13187714 0.16127552 0.07531768 -0.13101405 -0.038546864 0.13853554 -0.05081448 -0.044264812
-0.06026759 0.17387614 0.047673274 0.09286487 -0.082308576 -0.03789793 -0.015170236 -0.06195707
0.12206159 -0.12151652 -0.09259786 -0.02447039 0.049710434 -0.11619936 0.005995488 -0.09730176
0.02345636 0.007933108 -0.049322035 0.008192953 0.01281974 0.009652853 0.055448852 -0.025442414
-0.06875069 -0.08034653 0.11194675 -0.06293157 0.09914893 -0.05468471 -0.04807795 0.044367086
-0.0148412995 -0.11721592 0.109696075 -0.059101008 0.07000908 0.11110329 -0.04874006 -0.044945743
0.11229339 0.09357975 0.0848697 0.026151597 -0.029876942 -0.07602704 -0.04662672 0.010535786
0.07973002 -0.08324106 0.12534255 -0.10810413 0.104165025 0.042084455 -0.11605213 -0.10020602
0.05159592 0.10139636 0.008659082 -0.0071873195 -0.09101033 0.027438074 -0.068128146 0.077536546
0.05557697 -0.092514135 -0.09313248 0.12853883 0.03958196 -0.021228652 -0.09537425 -0.049169883
0.10412071 0.038118087 0.037224073 0.104536556 0.051305298 -0.08240095 -0.042444114 0.07772408
0.027976658 -0.06949122 0.062454253 -0.022625655 -0.019958703 -0.09087704 -0.08730804 -0.04621622
-0.11146851 -0.008374887 0.113511845 -0.03193338 0.02316787 -0.02170847 -0.07162337 0.011541027
-0.020256033 -0.08024597 -0.028602542 0.114338696 -0.009389037 0.016048072 -0.022786163 0.08472366
-0.079099976 -0.027696472 0.1229634 -0.03453524 0.053573076 0.0027044856 0.054609828 -0.038117092
-0.061200254 0.029384071 -0.0699928 -0.09289778 0.004780553 -0.109196305 0.14333104 0.0037158993
0.059131645 0.07977948 -0.067977056 0.08273346 0.0042575654 0.12383129 0.060286112 -0.031261526
0.070897885 0.13900319 -0.02169405 0.09136144 -0.03941692 -0.04721271 0.073967315 0.0865459
0.13205758 -0.08722683 -0.12957075 -0.07699123 -0.0065755756 0.1297049 0.027459411 -0.08025193
0.065215096 -0.024351245 -0.010489046 -0.030355174 -0.099628046 0.040658657 0.016719114 -0.02977686
-0.047164723 -0.06458574 -0.09058592 0.073726736 -0.037973076 0.091388606 -0.091101795 -0.049355526
-0.101875454 -0.021658635 0.050090674 -0.012049162 0.0804837 0.11368568 -0.034591198 0.0836231
-0.07223416 -0.018616267 0.09550134 -0.04867113 -0.04221029 -0.029283406 -0.09880548 -0.07922118
0.04004098 0.022873122 -0.01472914 -0.0027650797 0.13027968 0.12339679 0.13056667 0.10854295
-0.07379852 0.028930278 -0.09132193 -0.0208743 -0.0702924 -0.10852489 0.10499973 -0.06162694
0.061945733 -0.012591437 -0.06342852 0.12755285 -0.09412826 0.08759783 0.087929174 -0.00814163
0.08728082 -0.02494402 -0.035820067 0.09458672 -0.121152505 0.07175026 0.0389442 -0.08481121
00000000: 9c79 803d 0014 e43d bfbe d5bd 6121 c939
00000010: afa2 24bc acdb ee3c 03fa e7bc 9837 a03d
00000020: 8637 ae3d 641e b5bd 07ec 413d ac26 b6bd
00000030: a2cb 4abd fadb 6abd 241b 26bd 4866 953d
00000040: d476 75bb c0d2 893d 3f4f 0f3e 2166 ecbd
00000050: 2ee3 26bd 649d f33b 46cf 843d abb6 d13d
00000060: 32fb c2bd 16bb 5b3d d792 09bd afd0 973d
00000070: 80f7 d73d 90a7 f1bc dae4 0b3d 3312 c73c
00000080: 4ad8 60bb fd06 6fbd 7329 b33d b456 e13d
00000090: f3ca 413e 2bcb 09bd dd55 2d3e d194 a23d
000000a0: cd0a 073e 6925 253e 2840 9a3d 8c28 06be
000000b0: 51e3 1dbd 43dc 0d3e d822 50bd 054f 35bd
000000c0: 26db 76bd 960c 323e 0d45 433d f02f be3d
000000d0: 6691 a8bd dc3a 1bbd 958c 78bc b2c6 7dbd
000000e0: 6dfb f93d a7dd f8bd f2a3 bdbd 2176 c8bc
000000f0: 2b9d 4b3d eef9 edbd cc75 c43b 2546 c7bd
00000100: 8d27 c03c def9 013c e705 4abd bc3b 063c
00000110: e309 523c 0027 1e3c 561e 633d 9c6c d0bc
00000120: 29cd 8cbd b98c a4bd 5644 e53d 44e2 80bd
00000130: 980e cb3d 13fd 5fbd 62ed 44bd 43ba 353d
00000140: ec28 73bc e60e f0bd 56a8 e03d e613 72bd
00000150: ec60 8f3d 1f8a e33d a8a3 47bd 0719 38bd
00000160: 14fa e53d bda6 bf3d 2ad0 ad3d e03b d63c
00000170: 7dc0 f4bc 11b4 9bbd a9fb 3ebd 4a9e 2c3c
00000180: 7e49 a33d 4a7a aabd cc59 003e b365 ddbd
00000190: 7954 d53d c060 2c3d bdac edbd d038 cdbd
000001a0: 3e56 533d e5a8 cf3d d3de 0d3c 9b83 ebbb
000001b0: a063 babd d0c5 e03c c586 8bbd 7bcb 9e3d
000001c0: ada4 633d 0d78 bdbd 3ebc bebd af9f 033e
000001d0: b120 223d b6e7 adbc 9353 c3bd 5c66 49bd
000001e0: 3d3d d53d b621 1c3d 4578 183d 4317 d63d
000001f0: 8125 523d d4c1 a8bd e1d9 2dbd cd2d 9f3d
00000200: 4e2f e53c 6a51 8ebd 08d0 7f3d 7059 b9bc
00000210: 6f80 a3bc be1d babd 8fce b2bd 384d 3dbd
00000220: 9a49 e4bd d236 09bc e678 e83d 93cc 02bd
00000230: 8bca bd3c f6d5 b1bc 46af 92bd 9316 3d3c
00000240: fbef a5bc 0058 a4bd e14f eabc 682a ea3d
00000250: 7ad4 19bc 3f77 833c 0caa babc 9983 ad3d
00000260: 2bff a1bd b6e3 e2bc 3cd4 fb3d d374 0dbd
00000270: 716f 5b3d bd3d 313b 8eae 5f3d ab20 1cbd
00000280: 1ead 7abd ddb6 f03c 6358 8fbd 3141 bebd
00000290: 2fa6 9c3b 50a2 dfbd 5fc5 123e 7286 733b
000002a0: 0634 723d 6d63 a33d 8e37 8bbd 2970 a93d
000002b0: 0c83 8b3b 429b fd3d 92ee 763d 160c 00bd
000002c0: e932 913d da56 0e3e b8b7 b1bc b51b bb3d
000002d0: a373 21bd 1d62 41bd 2d7c 973d fa3e b13d
000002e0: 1a3a 073e fba3 b2bd 32ae 04be 94ad 9dbd
000002f0: ed77 d7bb 5cd1 043e 8ff2 e03c 205b a4bd
00000300: 7e8f 853d 437c c7bc 3fda 2bbc 6aab f8bc
00000310: ca09 ccbd b189 263d 86f6 883c 9aee f3bc
00000320: cc2f 41bd 8745 84bd 1c85 b9bd 0bfe 963d
00000330: a889 1bbd f329 bb3d 9493 babd 0529 4abd
00000340: 14a4 d0bd 736d b1bc e12b 4d3d d969 45bc
00000350: a3d4 a43d 0ad4 e83d 80af 0dbd 9642 ab3d
00000360: 81ef 93bd 2481 98bc 3596 c33d 615b 47bd
00000370: b2e4 2cbd c1e3 efbc 875a cabd b73e a2bd
00000380: 0302 243d 6a60 bb3c 7e52 71bc 5736 35bb
00000390: 0968 053e 75b7 fc3d 45b3 053e c44b de3d
000003a0: ae23 97bd 31ff ec3c fe06 bbbd 9400 abbc
000003b0: 76f5 8fbd 4c42 debd 190a d73d 886c 7cbd
000003c0: cfba 7d3d 514c 4ebc d0e6 81bd 379d 023e
000003d0: 51c6 c0bd 7e66 b33d 3614 b43d 7964 05bc
000003e0: 49c0 b23d 6757 ccbc 10b8 12bd afb6 c13d
000003f0: ce1e f8bd cdf1 923d f483 1f3d 80b1 adbd

blocks.0.proj.bias f4 [64]
-0.092072144 0.012926551 0.028961793 0.109655835 -0.013661681 0.08191373 -0.050211027 0.047893737
-0.021663 -0.026680281 0.09288188 -0.07854519 -0.0258073 -0.060662817 -0.10849961 -0.021781635
0.080506384 -0.10036539 0.13876212 -0.1131971 -0.07638438 0.1118302 0.13339484 0.013188032
0.046150275 -0.03279143 -0.080520876 0.012670549 0.086255446 -0.03220401 -0.0270045 0.06585964
0.14860955 0.029472513 0.12734702 -0.0018280183 -0.005863262 -0.06111973 0.06810966 0.0014937597
-0.08613649 0.005421846 -0.1601272 0.116513595 -0.014815987 -0.056142747 -0.09536018 0.10516636
-0.046365947 -0.106300294 -0.0076587135 -0.120460436 -0.072235264 0.03141445 -0.13574106 -0.027022235
0.025610872 -0.14736715 -0.01900313 -0.100197874 0.0127685 0.06308957 -0.14478692 -0.032852836
00000000: 5290 bcbd e2c9 533c 4841 ed3c 3d93 e03d
00000010: 3ed5 5fbc 63c2 a73d 14aa 4dbd 392c 443d
00000020: 9b76 b1bc 9b90 dabc db38 be3d 4ddc a0bd
00000030: d569 d3bc 9379 78bd 0b35 debd 666f b2bc
00000040: 88e0 a43d 5f8c cdbd a817 0e3e e2d3 e7bd
00000050: 6a6f 9cbd 3b07 e53d a898 083e 9e12 583c
00000060: 1208 3d3d 4e50 06bd 21e8 a4bd 2298 4f3c
00000070: b2a6 b03d 5ae8 03bd 8b38 ddbc 6be1 863d
00000080: 1a2d 183e 5770 f13c 4267 023e 1e9a efba
00000090: 9b20 c0bb af58 7abd 147d 8b3d 42ca c33a
000000a0: 5468 b0bd bea9 b13b 62f8 23be ae9e ee3d
000000b0: c1be 72bc f0f5 65bd 334c c3bd 7661 d73d
000000c0: 38ea 3dbd f8b3 d9bd f2f5 fabb f6b3 f6bd
000000d0: 15f0 93bd 70ac 003d b4ff 0abe bc5d ddbc
000000e0: e4cd d13c 6ae7 16be 74ac 9bbc 8b34 cdbd
000000f0: f832 513c 1b35 813d 0643 14be b290 06bd

blocks.1.qkv.weight f4 [192, 64]
0.0014517939 -0.09608748 -0.12252833 -0.104697466 0.0005298737 0.057396602 -0.03810183 0.10936231
-0.1314468 0.06078713 -0.107582524 -0.11565878 -0.017527314 -0.008379991 -0.095815994 -0.100728825
0.07523381 -0.087270334 0.08052065 -0.09296327 -0.052494626 0.099559784 0.06759024 -0.003940105
0.12914446 -0.09224905 -0.041111767 -0.050396357 -0.048116393 0.016330492 0.02783281 -0.10282322
-0.09398622 -0.020851849 -0.07848412 0.1148479 0.0025207957 -0.073256284 0.095988765 -0.11976208
0.07210272 -0.11714063 0.04612541 0.06511246 0.0504809 0.06080196 0.01982448 -0.06464271
-0.014327868 -0.03501941 -0.013762947 0.037904408 -0.113099605 0.099683926 -0.0970874 -0.059599448
0.09567223 0.062500484 0.066978954 -0.11300065 0.074561626 0.011673173 -0.12034052 0.025879472
-0.051598255 0.033936284 0.047015015 0.03334984 0.08743554 -0.06519361 0.12263411 0.06623806
0.04709176 -0.0976299 -0.016986683 0.11918202 0.08179574 -0.061864946 0.076684475 0.08751101
-0.045079935 -0.07008853 0.08124074 0.040129494 -0.03326593 0.043331895 -0.06599423 0.027628066
0.0001712358 0.09260967 0.097075924 -0.114312485 0.023243725 -0.024279999 -0.032650564 -0.07944907
-0.036598008 0.06170225 0.08499898 -0.03395124 0.056252785 0.054445848 0.11408354 0.017489376
0.03106764 0.01844859 0.06673738 0.08806767 0.015346715 -0.041057218 -0.053009257 -0.08450271
-0.13043901 -0.039517146 -0.104531236 0.0729195 0.104420654 -0.04081842 0.047336597 0.023527497
-0.08904789 0.06010144 0.025564216 0.097014435 0.08811553 0.062077913 0.021220556 -0.07284426
-0.10982948 -0.0087988945 0.09114565 0.10002464 -0.011389112 -0.112201266 -0.118925 0.0949276
0.06578946 -0.059095856 0.023427356 0.054327007 -0.06141159 -0.12630591 -0.0054787924 -0.10093448
0.07649199 0.0047573503 0.028385734 -0.12909631 -0.019486211 -0.05825235 0.013387797 0.051835638
-0.10541858 0.02609855 0.031929456 0.006228762 0.045719963 0.022535168 -0.044660915 -0.046788603
0.029820891 -0.10407734 -0.12160282 -0.05959682 0.07057568 -0.041190144 0.11474108 -0.11253941
-0.016464105 0.016807258 0.04463252 -0.02926501 0.05531936 -0.08064332 0.027984064 0.0492655
-0.110014096 0.069832936 0.08718467 -0.12649481 0.11947632 -0.08872463 0.1290283 -0.038535785
-0.043756817 0.06576054 0.044967346 -0.1019743 -0.0337124 0.048087534 0.043746915 -0.05755061
0.07157187 0.11546846 -0.122393526 0.042377193 0.0004328844 -0.056467958 -0.032020014 0.05512782
-0.07625989 -0.11590751 0.0043526427 -0.012891531 -0.032861732 -0.012921613 -0.049797878 0.079214364
-0.009214976 0.050753433 -0.10151415 -0.10754445 -0.09750079 -0.0502361 0.039970554 0.009789813
0.081853054 0.10650084 0.051781088 -0.024396379 0.04422104 0.10589825 -0.032689184 -0.070130855
-0.05815587 0.04102367 -0.07170556 0.1099514 -0.045946483 -0.022870518 0.090545304 0.07932763
0.10400116 0.009552989 -0.08344657 -0.042742286 0.032917205 0.090401806 0.033243034 0.107416704
-0.122990824 -0.11743017 0.024099093 -0.0407931 0.08438905 0.046641152 0.09248404 0.10934185
-0.021978498 0.07943048 -0.03125377 0.101753175 0.05061215 -0.062562324 0.05824992 0.03737115
00000000: 1f4a be3a 83c9 c4bd 22f0 fabd a06b d6bd
00000010: 39e7 0a3a b318 6b3d aa10 1cbd 59f9 df3d
00000020: fd99 06be edfb 783d 3a54 dcbd 83de ecbd
00000030: 7195 8fbc 3b4c 09bc 2d3b c4bd ea4a cebd
00000040: 2f14 9a3d caba b2bd 03e8 a43d 8763 bebd
00000050: 9b04 57bd 00e6 cb3d c06c 8a3d ff1b 81bb
00000060: 723e 043e 12ed bcbd d064 28bd 696c 4ebd
00000070: b215 45bd 86c7 853c a201 e43c fb94 d2bd
00000080: d97b c0bd 7fd1 aabc 48bc a0bd 6035 eb3d
00000090: ef33 253b 6407 96bd c295 c43d d245 f5bd
000000a0: 97aa 933d 6de7 efbd ffed 3c3d ae59 853d
000000b0: 0fc5 4e3d 7a0b 793d f366 a23c 6663 84bd
000000c0: 6fbf 6abc 8370 0fbd fc7d 61bc a741 1b3d
000000d0: c4a0 e7bd 1627 cc3d c2d5 c6bd 8d1e 74bd
000000e0: cdef c33d 4100 803d 432c 893d e36c e7bd
000000f0: c4b3 983d d640 3f3c 1775 f6bd 3001 d43c
00000100: b158 53bd c600 0b3d d192 403d d899 083d
00000110: 6811 b33d 3a84 85bd 9827 fb3d d2a7 873d
00000120: 4ae3 403d 2ff2 c7bd a827 8bbc b415 f43d
00000130: 8684 a73d 1966 7dbd c00c 9d3d f938 b33d
00000140: bda5 38bd 938a 8fbd 8c61 a63d d35e 243d
00000150: db41 08bd c97c 313d fc27 87bd 4154 e23c
00000160: c38d 3339 23aa bd3d becf c63d aa1c eabd
00000170: a069 be3c d9e6 c6bc 99bc 05bd 32b6 a2bd
00000180: cbe7 15bd 80bb 7c3d f213 ae3d 7510 0bbd
00000190: 5269 663d 9c02 5f3d a2a4 e93d e145 8f3c
000001a0: 9081 fe3c 7f21 973c 9cad 883d d35c b43d
000001b0: ca70 7b3c 9d2b 28bd 3c20 59bd c20f adbd
000001c0: ce91 05be bbdc 21bd 7914 d6bd d256 953d
000001d0: 7fda d53d 3731 27bd 05e4 413d bdbc c03c
000001e0: bd5e b6bd ed2c 763d 0c6c d13c 81af c63d
000001f0: ea75 b43d 6945 7e3d bbd6 ad3c 5f2f 95bd
00000200: 47ee e0bd 3d29 10bc 92aa ba3d b8d9 cc3d
00000210: 6699 3abc c7c9 e5bd f38e f3bd 6769 c23d
00000220: a0bc 863d 7f0e 72bd baea bf3c ff85 5e3d
00000230: b88a 7bbd 5656 01be 7187 b3bb bdb6 cebd
00000240: d5a7 9c3d 8ce3 9b3b 3389 e83c d331 04be
00000250: 8ca1 9fbc 049a 6ebd 7e58 5b3c 9b51 543d
00000260: b2e5 d7bd a0cc d53c 76c8 023d a51a cc3b
00000270: db44 3b3d ac9b b83c 5dee 36bd 68a5 3fbd
00000280: f14a f43c 8026 d5bd e60a f9bd cc1b 74bd
00000290: fb89 903d ffb6 28bd 5ffd ea3d 107b e6bd
000002a0: bbdf 86bc 60af 893c 97d0 363d 2dbd efbc
000002b0: 8e96 623d 5328 a5bd d63e e53c 9fca 493d
000002c0: 124f e1bd 9204 8f3d e08d b23d db87 01be
000002d0: 00b0 f43d 42b5 b5bd ff1f 043e b3d7 1dbd
000002e0: 593a 33bd 76ad 863d ae2f 383d e7d7 d0bd
000002f0: 0316 0abd 6ff7 443d f72f 333d 30ba 6bbd
00000300: 4694 923d ba7a ec3d 75a9 fabd b593 2d3d
00000310: c3f4 e239 f24a 67bd 6b27 03bd b5cd 613d
00000320: 252e 9cbd eb60 edbd 9da0 8e3b 0037 53bc
00000330: 069a 06bd 2cb5 53bc dcf8 4bbd 243b a23d
00000340: 69fa 16bc d5e2 4f3d a7e6 cfbd 4440 dcbd
00000350: 7fae c7bd 5ec4 4dbd 2ab8 233d 7465 203c
00000360: 93a2 a73d 1d1d da3d 6818 543d eada c7bc
00000370: 1f21 353d 2fe1 d83d 18e5 05bd c4a0 8fbd
00000380: d934 6ebd 7008 283d 5dda 92bd 332e e13d
00000390: 6132 3cbd f45a bbbc d16f b93d 8676 a23d
000003a0: 8ffe d43d 2484 1c3c 09e6 aabd 8912 2fbd
000003b0: 31d4 063d 9524 b93d d929 083d 4afd db3d
000003c0: 9de2 fbbd 3b7f f0bd 766b c53c aa16 27bd
000003d0: 2bd4 ac3d cb0a 3f3d 4668 bd3d 9fee df3d
000003e0: 400c b4bc 73ac a23d f403 00bd f863 d03d
000003f0: b04e 4f3d ad20 80bd 7897 6e3d 7e12 193d

blocks.1.qkv.bias f4 [192]
0.058531698 0.05504579 -0.07906157 0.047596484 0.0022628685 -0.02074552 0.028018324 -0.06902985
-0.10654827 0.09221192 0.10787889 0.05195059 -0.032842208 -0.12618768 0.0022158895 0.08805332
-0.04155904 -0.13626143 0.08797472 0.028075412 0.011591812 0.015763666 -0.039242115 -0.007852872
0.0057497765 0.06002564 0.13355885 -0.044039145 0.072089575 -0.09848235 -0.017078876 0.023713585
0.013982429 0.08010775 -0.016788932 -0.12835883 -0.23574871 -0.23419236 0.004730057 0.11475998
0.23725784 -0.01097194 -0.025813475 -0.1265174 0.14307775 -0.06908309 -0.25944275 0.14530751
0.0037741938 -0.0951654 -0.0033725693 -0.0147683695 -0.0923252 -0.115343146 -0.06224927 0.048455145
-0.056122456 -0.044616792 -0.1042844 0.043585714 0.12872396 -0.05196319 0.079284765 -0.07480845
0.061933905 0.041464478 -0.041565865 -0.03372562 0.050161123 -0.06366107 -0.11731163 0.012853946
-0.03160374 -0.11828801 -0.023145095 0.118004546 -0.116898224 0.07856108 -0.012187768 -0.028628841
0.0473281 -0.105579615 -0.085250124 -0.017562686 0.12076995 0.051366873 -0.023166401 0.01586815
-0.098465644 0.033236504 0.06922305 -0.08428317 0.030993871 0.12301567 0.054729942 0.05045046
-0.088201344 0.06788677 0.08552356 0.08241624 -0.06505063 0.10387689 -0.060342014 -0.056474626
-0.115809366 0.08314413 0.039373443 -0.09878284 0.06284663 0.024412142 -0.08733845 0.0684842
-0.022690728 -0.10141137 -0.11532247 -0.11598568 -0.023651287 -0.04794702 -0.11252786 -0.08575195
-0.016673386 -0.024164766 0.041779518 0.010122478 -0.06152606 0.08232765 -0.10522592 -0.08346133
0.034554575 -0.094602734 -0.028743645 -0.042812135 -0.0021177172 -0.11968302 0.098297834 -0.067531876
-0.07759448 -0.021167047 -0.05763328 -0.030701583 0.053465445 0.10768678 0.08830085 -0.07544842
0.031101704 0.013625744 0.029875714 -0.05087059 0.041383542 0.0057276255 0.064259686 0.08172952
0.121636204 -0.006955369 0.048135646 -0.0110169295 0.09835635 -0.015026328 0.034658454 0.08145628
-0.075528055 0.102946706 0.046831653 0.041628983 0.029796315 0.04606905 0.071241796 0.13355784
0.0632908 -0.028690567 0.024181172 -0.043787226 -0.05703189 -0.017601158 -0.08438339 0.05324051
-0.052212797 -0.0967787 0.05748682 0.0051544555 0.0016982428 0.08624234 0.03846006 -0.049311526
0.037594832 -0.065503694 0.071454436 0.01770637 0.08711346 -0.0080011375 -0.1271857 -0.031118095
00000000: efbe 6f3d b277 613d 08eb a1bd 88f4 423d
00000010: a24c 143b 82f2 a9bc af86 e53c 865f 8dbd
00000020: fb35 dabd 9ad9 bc3d 9cef dc3d 24ca 543d
00000030: 8d85 06bd 5837 01be 7538 113b 4d55 b43d
00000040: d039 2abd 1e88 0bbe 172c b43d 68fe e53c
00000050: 95eb 3d3c ce22 813c 57bc 20bd 55a9 00bc
00000060: 9f68 bc3b 72dd 753d a7c3 083e 6462 34bd
00000070: b3a3 933d 1db1 c9bd 00e9 8bbc fe42 c23c
00000080: 8f16 653c 880f a43d f188 89bc 7f70 03be
00000090: 1c68 71be 1fd0 6fbe 98fe 9a3b 4807 eb3d
000000a0: b8f3 723e a7c3 33bc c876 d3bc c78d 01be
000000b0: f982 123e 6f7b 8dbd aed5 84be 7ecb 143e
000000c0: 7758 773b 14e6 c2bd 5306 5dbb 08f7 71bc
000000d0: ff14 bdbd 0739 ecbd 17f9 7ebd e778 463d
000000e0: a9e0 65bd 19c0 36bd 0f93 d5bd ef86 323d
000000f0: 37d0 033e 5bd7 54bd 0d60 a23d 2c35 99bd
00000100: 68ae 7d3d a8d6 293d f840 2abd e023 0abd
00000110: c075 4d3d bc60 82bd 1441 f0bd 5b99 523c
00000120: ec72 01bd fc40 f2bd c89a bdbc 5eac f13d
00000130: 5668 efbd a2e4 a03d 34af 47bc 0887 eabc
00000140: 1cdb 413d 203a d8bd 9e97 aebd 9fdf 8fbc
00000150: 3c56 f73d 1266 523d 77c7 bdbc ecfd 813c
00000160: 5ba8 c9bd 0023 083d d0c4 8d3d a89c acbd
00000170: dce6 fd3c a4ef fb3d 812c 603d 24a5 4e3d
00000180: e8a2 b4bd 3808 8b3d fa26 af3d d8c9 a83d
00000190: 4439 85bd 68bd d43d 3029 77bd f051 67bd
000001a0: 762d edbd 7847 aa3d 0c46 213d a84e cabd
000001b0: bcb5 803d f9fb c73c 80de b2bd 7241 8c3d
000001c0: e8e1 b9bc c4b0 cfbd 302e ecbd e689 edbd
000001d0: 58c0 c1bc 1864 44bd 0275 e6bd b89e afbd
000001e0: a096 88bc 30f5 c5bc 0021 2b3d c0d8 253c
000001f0: c002 7cbd 669b a83d b080 d7bd c6ed aabd
00000200: 1989 0d3d 14bf c1bd cb77 ebbc c75b 2fbd
00000210: 66c9 0abb 5f1c f5bd 6050 c93d 274e 8abd
00000220: dbe9 9ebd 8466 adbc e010 6cbd e381 fbbc
00000230: 95fe 5a3d e38a dc3d 13d7 b43d b484 9abd
00000240: 00c9 fe3c 833e 5f3c eabd f43c ae5d 50bd
00000250: ca81 293d ceae bb3b 959a 833d ce61 a73d
00000260: 671c f93d dde9 e3bb e229 453d 5a80 34bc
00000270: 0e6f c93d fd30 76bc 06f6 0d3d 8dd2 a63d
00000280: 74ae 9abd b9d5 d23d 8cd2 3f3d 2783 2a3d
00000290: 6717 f43c e6b2 3c3d 38e7 913d 63c3 083e
000002a0: 9b9e 813d 7b08 ebbc 9817 c63c 3c5a 33bd
000002b0: 459a 69bd 4e30 90bc 33d1 acbd b912 5a3d
000002c0: 16dd 55bd e933 c6bd 4d77 6b3d b5e6 a83b
000002d0: 9397 de3a d39f b03d 4c88 1d3d e2fa 49bd
000002e0: 0afd 193d cd26 86bd b456 923d f30c 913c
000002f0: 8b68 b23d 3417 03bc f83c 02be 60eb febc

blocks.1.proj.weight f4 [64, 64]
-0.039493885 -0.11098355 -0.10333861 0.05739808 -0.1090435 0.07144977 0.029048095 0.13271694
0.0011203388 0.05007217 0.050207883 0.04215503 -0.10474579 0.0899103 0.057078287 -0.034544803
-0.10561127 -0.11120098 -0.12938161 -0.037966073 0.029277483 0.029290054 0.13401243 0.03297929
0.079235196 -0.10750016 0.008613579 -0.055865534 0.017612495 0.07814594 -0.018640058 -0.08152568
-0.1632353 0.07070514 0.0434625 0.034478653 -0.108113505 -0.06614999 0.04096259 0.032951098
-0.13912152 -0.059340235 0.064209506 0.10920697 -0.061873253 -0.071908616 -0.03528483 -0.07739259
0.08349971 0.01860297 -0.11913283 0.08174989 -0.086637296 0.01578534 0.07290573 0.076995134
-0.11053106 0.1072116 -0.042377256 -0.010997432 0.09104647 0.07192134 0.019087523 -0.1320663
0.021177042 0.07234879 0.028568247 0.07736705 -0.09598233 -0.076484054 0.008422029 0.095442295
-0.1212345 -0.06931093 0.018931648 0.07437786 0.12154834 -0.07186309 -0.12841627 0.0017524502
0.1304551 -0.087716654 -0.06859285 -0.045246027 0.06474707 -0.060243864 -0.12482576 -0.078906976
-0.10047165 -0.035323672 0.09963617 0.046577808 -0.07234568 -0.046893258 0.10101643 -0.10387319
-0.11113886 -0.04865857 0.020843515 0.07588749 -0.06986616 -0.10721721 -0.07558051 -0.045096535
0.0342208 -0.09990067 -0.07819684 -0.12006529 0.0416362 -0.10832224 0.036638487 -0.049759854
-0.058358774 0.1132093 0.03219073 0.039841786 -0.058541298 -0.052098114 0.004731808 -0.030333932
0.08213018 -0.10739396 0.09467451 -0.0056927246 -0.021321502 -0.11832067 -0.09589902 -0.0073582046
-0.056226134 0.14506157 0.08744008 -0.06037966 0.039673578 -0.064312324 -0.13583139 -0.01784577
0.043955654 0.041573197 0.103271626 -0.110452086 -0.09701461 -0.12698324 0.044439685 -0.044101845
0.012797842 -0.00096060097 -0.079683125 -0.061315645 0.00010784203 -0.06665552 0.120433606 -0.054151013
-0.09276535 0.0991458 0.08289689 -0.10261897 0.03210973 0.068490945 -0.024763297 -0.044328213
-0.07985324 -0.0939883 -0.07295037 -0.04208184 0.021601608 0.053977575 -0.085357174 0.06894081
0.0844708 -0.14705044 -0.059848364 0.08662636 -0.04737489 -0.098046064 0.031244816 0.07660177
0.0035390926 0.1418377 0.013048024 0.1171403 0.07325962 -0.03481186 0.043150052 -0.059527323
-0.044340175 0.06009847 0.12401378 0.011893836 0.10815738 -0.07394269 -0.049235515 -0.11268653
0.021581417 -0.07020341 -0.09830495 -0.03764952 0.06755859 -0.08901412 -0.11264035 -0.08233848
-0.050962158 -0.05717059 -0.10059834 -0.023254246 0.117248625 -0.15020669 0.12214168 0.07669198
-0.03757411 -0.055746213 -0.07672861 -0.0037784535 0.060362168 0.12389094 -0.06869479 -0.09752601
0.08504015 0.027015077 -0.04374361 0.020552251 -0.112914816 0.07750479 -0.037136305 0.04696543
-0.11525885 0.11992796 0.016805831 -0.012098097 -0.107062 0.049792275 -0.018906076 0.07276666
0.106913224 0.07780432 0.029135903 -0.0035279258 0.07331301 0.06103035 -0.09556342 -0.11496075
0.09323486 -0.09545726 0.089794 0.013587911 0.09420207 0.012815495 -0.07150205 0.009594395
0.0116661675 -0.09780855 -0.09881571 -0.020744868 -0.06903224 -0.040433127 -0.02456633 -0.05515372
00000000: 57c4 21bd 584b e3bd 31a3 d3bd 401a 6b3d
00000010: 3352 dfbd 4254 923d 45f6 ed3c f3e6 073e
00000020: 55d8 923a 7a18 4d3d c8a6 4d3d c1aa 2c3d
00000030: f684 d6bd e422 b83d ecca 693d da7e 0dbd
00000040: b94a d8bd 57bd e3bd 9d7c 04be 5082 1bbd
00000050: 55d7 ef3c b2f1 ef3c 8e3a 093e 4b15 073d
00000060: 1046 a23d 0b29 dcbd f81f 0d3c 42d3 64bd
00000070: 1448 903c fb0a a03d 09b3 98bc f0f6 a6bd
00000080: 2827 27be dbcd 903d bc05 323d 7d39 0d3d
00000090: 9d6a ddbd a579 87bd 64c8 273d bbf7 063d
000000a0: df75 0ebe bf0e 73bd 4680 833d e7a7 df3d
000000b0: cf6e 7dbd d344 93bd d386 10bd 0280 9ebd
000000c0: e501 ab3d 4165 983c eafb f3bd 7d6c a73d
000000d0: e56e b1bd 4250 813c 994f 953d a0af 9d3d
000000e0: 1c5e e2bd c191 db3d c693 2dbd 932e 34bc
000000f0: 9276 ba3d 7f4b 933d 705d 9c3c 633c 07be
00000100: 7a7b ad3c 9a2b 943d f507 ea3c 9e72 9e3d
00000110: 6292 c4bd aca3 9cbd 8dfc 093c 4077 c33d
00000120: cb49 f8bd e4f2 8dbd 8b16 9b3c 6b53 983d
00000130: 56ee f83d f52c 93bd 8e7f 03be 79b2 e53a
00000140: 0696 053e caa4 b3bd 687a 8cbd e653 39bd
00000150: 1d9a 843d 45c2 76bd a6a4 ffbd fb99 a1bd
00000160: 15c4 cdbd 8eaf 10bd 0c0e cc3d 5fc8 3e3d
00000170: f929 94bd 2513 40bd b4e1 ce3d 78bb d4bd
00000180: c59c e3bd 354e 47bd 05c0 aa3c e66a 9b3d
00000190: fd15 8fbd b294 dbbd f4c9 9abd 25b7 38bd
000001a0: 1c2b 0c3d b998 ccbd aa25 a0bd cae4 f5bd
000001b0: b88a 2a3d 0dd8 ddbd 3d12 163d fdd0 4bbd
000001c0: 9c09 6fbd 47da e73d 6dda 033d 2431 233d
000001d0: 00c9 6fbd d564 55bd 480d 9b3b de7e f8bc
000001e0: de33 a83d 5df1 dbbd b6e4 c13d 098a babb
000001f0: 6eaa aebc 1c52 f2bd b566 c4bd 181d f1bb
00000200: 604d 66bd 058b 143e c913 b33d aa50 77bd
00000210: c380 223d 2eb6 83bd 6217 0bbe 4b31 92bc
00000220: d80a 343d a848 2a3d 1380 d33d b434 e2bd
00000230: 99af c6bd e507 02be 6306 363d 23a4 34bd
00000240: 0aae 513c d7d0 7bba e830 a3bd 1d26 7bbd
00000250: 4029 e238 b082 88bd e5a5 f63d 74cd 5dbd
00000260: c3fb bdbd f40c cb3d d8c5 a93d e529 d2bd
00000270: 7e85 033d fb44 8c3d 66dc cabc 8091 35bd
00000280: 188a a3bd f07c c0bd 0167 95bd 025e 2cbd
00000290: dbf5 b03c 9717 5d3d becf aebd d730 8d3d
000002a0: 07ff ac3d 6494 16be 8f23 75bd 2969 b13d
000002b0: 2c0c 42bd 60cc c8bd 21f5 ff3c 64e1 9c3d
000002c0: 1ff0 673b e73d 113e 61c7 553c 41e7 ef3d
000002d0: 2409 963d e296 0ebd 1cbe 303d ecd2 73bd
000002e0: 0b9e 35bd d029 763d f0fa fd3d 5dde 423c
000002f0: 9e81 dd3d 446f 97bd 2eab 49bd 32c8 e6bd
00000300: 83cb b03c cec6 8fbd 1b54 c9bd 6236 1abd
00000310: 285c 8a3d 094d b6bd fcaf e6bd 14a1 a8bd
00000320: b2bd 50bd b52b 6abd 8106 cebd b07f bebc
00000330: 0c20 f03d c8cf 19be 6b25 fa3d af10 9d3d
00000340: 4fe7 19bd 2456 64bd e423 9dbd ee9f 77bb
00000350: 523e 773d 88ba fd3d dbaf 8cbd b7bb c7bd
00000360: 8829 ae3d b94e dd3c 802c 33bd 325d a83c
00000370: e23f e7bd d5ba 9e3d 3d1c 18bd d35e 403d
00000380: d50c ecbd ca9c f53d 62ac 893c 1937 46bc
00000390: 5243 dbbd fcf2 4b3d eae0 9abc b006 953d
000003a0: 52f5 da3d df57 9f3d 6bae ee3c c634 67bb
000003b0: 2225 963d f6fa 793d c1b6 c3bd 8b70 ebbd
000003c0: ebf1 be3d 197f c3bd ebe5 b73d d49f 5e3c
000003d0: 04ed c03d 15f8 513c ab6f 92bd cf31 1d3c
000003e0: 7423 3f3c d94f c8bd e45f cabd 24f1 a9bc
000003f0: c660 8dbd 359d 25bd 543f c9bc dee8 61bd

blocks.1.proj.bias f4 [64]
0.019097466 -0.019072443 0.052703556 0.020605277 0.07154287 0.0866152 0.09749533 0.10283874
0.09980552 0.0042492463 -0.11847464 0.025882704 -0.08401875 -0.026594749 -0.012657496 -0.005707312
-0.053807992 -0.053368893 -0.09075772 -0.0787934 -0.10844107 0.10193389 -0.07514516 -0.15115252
-0.058840152 0.017207742 0.0395743 -0.08220444 -0.0045929546 -0.04876949 -0.11586039 0.021672318
0.08333488 -0.060050037 0.096880265 -0.0043927585 0.030657833 0.048375953 -0.08073388 -0.11793189
-0.06872631 0.022778124 0.073454194 0.08206461 -0.057444874 0.040491637 0.009625434 -0.006509382
0.053844232 0.06611552 0.039736114 0.050984338 0.039924838 -0.017928379 0.033921808 -0.06697561
0.1285226 -0.10235149 0.08665209 0.010418851 0.094180524 0.01984213 0.018222032 -0.013503536
00000000: 4a72 9c3c d03d 9cbc afdf 573d 66cc a83c
00000010: 1185 923d 4f63 b13d a2ab c73d 1e9d d23d
00000020: d666 cc3d 433d 8b3b d5a2 f2bd f707 d43c
00000030: 0612 acbd 3bdd d9bc 6361 4fbc 6704 bbbb
00000040: c565 5cbd 5799 5abd 2fdf b9bd 6f5e a1bd
00000050: 5a16 debd b7c2 d03d b5e5 99bd bac7 1abe
00000060: 5f02 71bd 40f7 8c3c a918 223d cd5a a8bd
00000070: 7f80 96bb 84c2 47bd 3648 edbd 258a b13c
00000080: 7aab aa3d 07f7 75bd 2969 c63d 21f1 8fbb
00000090: 2326 fb3c dd25 463d ce57 a5bd 4686 f1bd
000000a0: 61c0 8cbd 3099 ba3c 276f 963d 7e11 a83d
000000b0: 514b 6bbd 8fda 253d ffb3 1d3c a74c d5bb
000000c0: c58b 5c3d 9367 873d 56c2 223d f4d4 503d
000000d0: 3a88 233d 89de 92bc 98f1 0a3d 822a 89bd
000000e0: 6e9b 033e a89d d1bd a776 b13d d4b3 2a3c
000000f0: b8e1 c03d f68b a23c 5f46 953c ef3d 5dbc
